E:\Programming\Miniconda3\python.exe D:/Project/Python/Dialogue/Dialogue/run.py
dataset:  ./dataset/DoubanConversaionCorpus/
Namespace(batch_size=150, epochs=5, l2_reg=0.0, learning_rate=0.001, max_utterances=10, max_words=50, rnn1_hidden=200, rnn2_hidden=200, save_path='./checkpoint/douban.MSN.pt', score_file_path='./dataset/DoubanConversaionCorpus/score_file.txt', vocab_size=156157)
MSN(
  (word_embedding): Embedding(156157, 200, padding_idx=0)
  (selector_transformer): TransformerBlock(
    (relu): ReLU()
    (linear1): Linear(in_features=200, out_features=200, bias=True)
    (linear2): Linear(in_features=200, out_features=200, bias=True)
  )
  (linear_word): Linear(in_features=100, out_features=1, bias=True)
  (linear_score): Linear(in_features=3, out_features=1, bias=True)
  (transformer_utt): TransformerBlock(
    (relu): ReLU()
    (linear1): Linear(in_features=200, out_features=200, bias=True)
    (linear2): Linear(in_features=200, out_features=200, bias=True)
  )
  (transformer_res): TransformerBlock(
    (relu): ReLU()
    (linear1): Linear(in_features=200, out_features=200, bias=True)
    (linear2): Linear(in_features=200, out_features=200, bias=True)
  )
  (transformer_ur): TransformerBlock(
    (relu): ReLU()
    (linear1): Linear(in_features=200, out_features=200, bias=True)
    (linear2): Linear(in_features=200, out_features=200, bias=True)
  )
  (transformer_ru): TransformerBlock(
    (relu): ReLU()
    (linear1): Linear(in_features=200, out_features=200, bias=True)
    (linear2): Linear(in_features=200, out_features=200, bias=True)
  )
  (cnn_2d_1): Conv2d(6, 16, kernel_size=(3, 3), stride=(1, 1))
  (maxpooling1): MaxPool2d(kernel_size=(2, 2), stride=(2, 2), padding=0, dilation=1, ceil_mode=False)
  (cnn_2d_2): Conv2d(16, 32, kernel_size=(3, 3), stride=(1, 1))
  (maxpooling2): MaxPool2d(kernel_size=(2, 2), stride=(2, 2), padding=0, dilation=1, ceil_mode=False)
  (cnn_2d_3): Conv2d(32, 64, kernel_size=(3, 3), stride=(1, 1))
  (maxpooling3): MaxPool2d(kernel_size=(3, 3), stride=(3, 3), padding=0, dilation=1, ceil_mode=False)
  (affine2): Linear(in_features=576, out_features=300, bias=True)
  (gru_acc): GRU(300, 300, batch_first=True)
  (affine_out): Linear(in_features=300, out_features=1, bias=True)
  (tanh): Tanh()
  (relu): ReLU()
  (dropout): Dropout(p=0.2)
)
X_utterances:  torch.Size([1000000, 10, 50])
X_responses:  torch.Size([1000000, 50])
y_labels:  torch.Size([1000000])

Epoch  1 / 5
Batch[0] - loss: 0.693539  batch_size:150
Batch[1] - loss: 0.783128  batch_size:150
Batch[2] - loss: 0.693412  batch_size:150
Batch[3] - loss: 0.682673  batch_size:150
…
