nohup: ignoring input
dataset:  ./dataset/ubuntu_data/
Namespace(batch_size=200, epochs=5, l2_reg=0.0, learning_rate=0.001, max_utterances=10, max_words=50, rnn1_hidden=300, rnn2_hidden=300, save_path='./checkpoint/ubuntu.MSN.pt', score_file_path='./dataset/ubuntu_data/score_file.txt', vocab_size=158469)
MSN(
  (word_embedding): Embedding(158469, 200, padding_idx=0)
  (selector_transformer): TransformerBlock(
    (relu): ReLU()
    (linear1): Linear(in_features=200, out_features=200, bias=True)
    (linear2): Linear(in_features=200, out_features=200, bias=True)
  )
  (linear_word): Linear(in_features=100, out_features=1, bias=True)
  (linear_score): Linear(in_features=3, out_features=1, bias=True)
  (transformer_utt): TransformerBlock(
    (relu): ReLU()
    (linear1): Linear(in_features=200, out_features=200, bias=True)
    (linear2): Linear(in_features=200, out_features=200, bias=True)
  )
  (transformer_res): TransformerBlock(
    (relu): ReLU()
    (linear1): Linear(in_features=200, out_features=200, bias=True)
    (linear2): Linear(in_features=200, out_features=200, bias=True)
  )
  (transformer_ur): TransformerBlock(
    (relu): ReLU()
    (linear1): Linear(in_features=200, out_features=200, bias=True)
    (linear2): Linear(in_features=200, out_features=200, bias=True)
  )
  (transformer_ru): TransformerBlock(
    (relu): ReLU()
    (linear1): Linear(in_features=200, out_features=200, bias=True)
    (linear2): Linear(in_features=200, out_features=200, bias=True)
  )
  (cnn_2d_1): Conv2d(6, 16, kernel_size=(3, 3), stride=(1, 1))
  (maxpooling1): MaxPool2d(kernel_size=(2, 2), stride=(2, 2), padding=0, dilation=1, ceil_mode=False)
  (cnn_2d_2): Conv2d(16, 32, kernel_size=(3, 3), stride=(1, 1))
  (maxpooling2): MaxPool2d(kernel_size=(2, 2), stride=(2, 2), padding=0, dilation=1, ceil_mode=False)
  (cnn_2d_3): Conv2d(32, 64, kernel_size=(3, 3), stride=(1, 1))
  (maxpooling3): MaxPool2d(kernel_size=(3, 3), stride=(3, 3), padding=0, dilation=1, ceil_mode=False)
  (affine2): Linear(in_features=576, out_features=300, bias=True)
  (gru_acc): GRU(300, 300, batch_first=True)
  (affine_out): Linear(in_features=300, out_features=1, bias=True)
  (tanh): Tanh()
  (relu): ReLU()
  (dropout): Dropout(p=0.2, inplace=False)
)
X_utterances:  torch.Size([1000000, 10, 50])
X_responses:  torch.Size([1000000, 50])
y_labels:  torch.Size([1000000])

Epoch  1 / 5
Batch[0] - loss: 0.692490  batch_size:200
Batch[1] - loss: 0.754153  batch_size:200
Batch[2] - loss: 0.709777  batch_size:200
Batch[3] - loss: 0.720696  batch_size:200
…
Batch[4998] - loss: 0.205340  batch_size:200
Batch[4999] - loss: 0.142768  batch_size:200
Average loss:0.180855 
X_utterances:  torch.Size([500000, 10, 50])
X_responses:  torch.Size([500000, 50])
Evaluation Result: 
 MAP: 0.8743941666666638 	 MRR: 0.8743941666666638 	 P@1: 0.79918 	 R1: 0.79918 	 R2: 0.89762 	 R5: 0.97748

dataset:  ./dataset/ubuntu_data/
Namespace(batch_size=200, epochs=5, l2_reg=0.0, learning_rate=0.001, max_utterances=10, max_words=50, rnn1_hidden=300, rnn2_hidden=300, save_path='./checkpoint/ubuntu.MSN.pt', score_file_path='./dataset/ubuntu_data/score_file.txt', vocab_size=158469)
MSN(
  (word_embedding): Embedding(158469, 200, padding_idx=0)
  (selector_transformer): TransformerBlock(
    (relu): ReLU()
    (linear1): Linear(in_features=200, out_features=200, bias=True)
    (linear2): Linear(in_features=200, out_features=200, bias=True)
  )
  (linear_word): Linear(in_features=100, out_features=1, bias=True)
  (linear_score): Linear(in_features=3, out_features=1, bias=True)
  (transformer_utt): TransformerBlock(
    (relu): ReLU()
    (linear1): Linear(in_features=200, out_features=200, bias=True)
    (linear2): Linear(in_features=200, out_features=200, bias=True)
  )
  (transformer_res): TransformerBlock(
    (relu): ReLU()
    (linear1): Linear(in_features=200, out_features=200, bias=True)
    (linear2): Linear(in_features=200, out_features=200, bias=True)
  )
  (transformer_ur): TransformerBlock(
    (relu): ReLU()
    (linear1): Linear(in_features=200, out_features=200, bias=True)
    (linear2): Linear(in_features=200, out_features=200, bias=True)
  )
  (transformer_ru): TransformerBlock(
    (relu): ReLU()
    (linear1): Linear(in_features=200, out_features=200, bias=True)
    (linear2): Linear(in_features=200, out_features=200, bias=True)
  )
  (cnn_2d_1): Conv2d(6, 16, kernel_size=(3, 3), stride=(1, 1))
  (maxpooling1): MaxPool2d(kernel_size=(2, 2), stride=(2, 2), padding=0, dilation=1, ceil_mode=False)
  (cnn_2d_2): Conv2d(16, 32, kernel_size=(3, 3), stride=(1, 1))
  (maxpooling2): MaxPool2d(kernel_size=(2, 2), stride=(2, 2), padding=0, dilation=1, ceil_mode=False)
  (cnn_2d_3): Conv2d(32, 64, kernel_size=(3, 3), stride=(1, 1))
  (maxpooling3): MaxPool2d(kernel_size=(3, 3), stride=(3, 3), padding=0, dilation=1, ceil_mode=False)
  (affine2): Linear(in_features=576, out_features=300, bias=True)
  (gru_acc): GRU(300, 300, batch_first=True)
  (affine_out): Linear(in_features=300, out_features=1, bias=True)
  (tanh): Tanh()
  (relu): ReLU()
  (dropout): Dropout(p=0.2, inplace=False)
)
test set:
X_utterances:  torch.Size([500000, 10, 50])
X_responses:  torch.Size([500000, 50])
Evaluation Result:
 MAP: 0.875438857142856          MRR: 0.875438857142856          P@1: 0.80046    R1: 0.80046     R2: 0.899       R5: 0.97784
MSN(
  (word_embedding): Embedding(158469, 200, padding_idx=0)
  (selector_transformer): TransformerBlock(
    (relu): ReLU()
    (linear1): Linear(in_features=200, out_features=200, bias=True)
    (linear2): Linear(in_features=200, out_features=200, bias=True)
  )
  (linear_word): Linear(in_features=100, out_features=1, bias=True)
  (linear_score): Linear(in_features=3, out_features=1, bias=True)
  (transformer_utt): TransformerBlock(
    (relu): ReLU()
    (linear1): Linear(in_features=200, out_features=200, bias=True)
    (linear2): Linear(in_features=200, out_features=200, bias=True)
  )
  (transformer_res): TransformerBlock(
    (relu): ReLU()
    (linear1): Linear(in_features=200, out_features=200, bias=True)
    (linear2): Linear(in_features=200, out_features=200, bias=True)
  )
  (transformer_ur): TransformerBlock(
    (relu): ReLU()
    (linear1): Linear(in_features=200, out_features=200, bias=True)
    (linear2): Linear(in_features=200, out_features=200, bias=True)
  )
  (transformer_ru): TransformerBlock(
    (relu): ReLU()
    (linear1): Linear(in_features=200, out_features=200, bias=True)
    (linear2): Linear(in_features=200, out_features=200, bias=True)
  )
  (cnn_2d_1): Conv2d(6, 16, kernel_size=(3, 3), stride=(1, 1))
  (maxpooling1): MaxPool2d(kernel_size=(2, 2), stride=(2, 2), padding=0, dilation=1, ceil_mode=False)
  (cnn_2d_2): Conv2d(16, 32, kernel_size=(3, 3), stride=(1, 1))
  (maxpooling2): MaxPool2d(kernel_size=(2, 2), stride=(2, 2), padding=0, dilation=1, ceil_mode=False)
  (cnn_2d_3): Conv2d(32, 64, kernel_size=(3, 3), stride=(1, 1))
  (maxpooling3): MaxPool2d(kernel_size=(3, 3), stride=(3, 3), padding=0, dilation=1, ceil_mode=False)
  (affine2): Linear(in_features=576, out_features=300, bias=True)
  (gru_acc): GRU(300, 300, batch_first=True)
  (affine_out): Linear(in_features=300, out_features=1, bias=True)
  (tanh): Tanh()
  (relu): ReLU()
  (dropout): Dropout(p=0.2, inplace=False)
)
adversarial test set (k=1):
X_utterances:  torch.Size([500000, 10, 50])
X_responses:  torch.Size([500000, 50])
Evaluation Result:
 MAP: 0.8156941984126986         MRR: 0.8156941984126986         P@1: 0.70668    R1: 0.70668     R2: 0.84638     R5: 0.96742
adversarial test set (k=2):
…
